converted_model_cifar.tflite (tflite, 858104 bytes, 6 tensors)

dense_1/MatMul_bias f4 [256]
00000000: 2e3a acbf b3de 8fbb dc28 99bb 490f 0abf
00000010: d7bb 01bc ca76 8cbf bbb8 87bb 748e 2abb
00000020: 3c5e 24bb 67a6 0aba 2c48 e8bb dc65 a2bb
00000030: d426 27bc a400 b3bb db53 fbbb f529 5bbb
00000040: b20e 44bb 5ced c5ba a265 19bb d61e 86bb
00000050: 9834 a1bc 8960 acbb e82e 88bb c40c 54c0
00000060: c6f2 1cbc f28b 7abe 3418 b4c0 8ee5 a1c0
00000070: 4fcb 81bc 1dd5 17bc 2b36 c7bb a30c 99ba
00000080: 238c 82bb 46b8 93ba d15e 8fbb edf9 0ec0
00000090: 04d1 05bc bcee c6bb dd33 c6bb b04e 33bc
000000a0: 20d7 92bb 0d30 24bc b724 1bbb 1774 08c0
000000b0: ca40 e2bb 7a9d 44bb 72e2 b6bb 3e1b 21c0
000000c0: e7b9 a9bb 0c46 27ba 9a97 673f d109 47bb
000000d0: 45b3 b33c 60a1 e1bb a4b6 a1bb 61f8 b3c0
000000e0: faf1 f7bb c98f 883b 64d5 08bb 9138 f6bf
000000f0: 1d87 87bb 7da0 6dc0 0b6f 7cbb 579f f5b9
00000100: fc56 94bb dc2e 23bc a834 94ba d307 74bb
00000110: ab87 d2bf 4b25 30bb b515 5d3e 1de2 e4ba
00000120: f189 5140 e6d6 6bbb ab8c b4bb b113 06bc
00000130: 8df0 8ebd b4d7 f3ba a17b 03bc b805 8fbb
00000140: da46 49c0 6057 9dbb 19e5 04bc 4523 f5bb
00000150: 65aa 2cbb 608b 8bbb 1d35 72bb 92bf 2fbc
00000160: 1c3a 35bb 7790 b1bb e56f 903c 223b 97bb
00000170: 53a8 10bb 233e 94bb 809a b0bb 2c89 503b
00000180: 408b a4bb e637 02bb 1214 05bc 0c57 afbb
00000190: 5c8b 22bb 4f74 2abb f312 97bb 13cd 76bb
000001a0: c34e 04bc c2dc ffbb 4766 2fb9 83b9 33bc
000001b0: d704 30ba 2540 23bb ed64 c5bb c56e 1fc0
000001c0: a267 f23e 5311 25bc 55ac dfbb 170d 19bb
000001d0: f8a2 75bb 2fa4 b9bc 00e3 eebb 6622 a2ba
000001e0: d260 fabb 3624 79bb c2de 013f 297b 14bb
000001f0: 2230 19bf 5916 5bbb feec 66bb 60fb 3cbb
00000200: 5274 9fbb 1520 a3bb 2c73 36bb 7085 d6bb
00000210: bd0e 09bc 5864 12c0 866d 06bb bfce a7ba
00000220: 31ed 7fbb 5899 10bb 5bb5 65bc d0ae adbc
00000230: 332d cabb b777 29bc 47e4 3ebf c5b3 49bb
00000240: 96c4 82bb 682d 74bb cecf 0fc0 7fc2 2ebc
00000250: 6df6 99ba 584e 5640 ace8 ba3f 6c30 9bba
00000260: cd90 213f a6a8 febb 09ff 2bc0 e959 f0bb
00000270: c46c 62bb 4f2b b4bb e285 2dba 448d 3bbb
00000280: c054 ffbf 41ab 44bb 60b2 a6bc 078b e0be
00000290: f973 b8bc 7ef5 07bb c3c3 97bb dcf4 98bb
000002a0: d270 9aba 5cb0 58bb 1bc4 b1bb de50 0bbb
000002b0: 18c1 abbb 0b63 4e3b d170 6dbb 7df0 8ec0
000002c0: 3d6d a2be 014c 16be 0567 1dbc 45c3 d7ba
000002d0: ae0a 0bc0 0c1d 1cbb 3cf7 15bc a4a8 93bb
000002e0: 9215 29bb e0de 86bb 9192 a6bb 7295 393b
000002f0: 79c4 0dbb ec8b 83bf 5221 a2bb 50ff 2bbc
00000300: 8817 b9bb fceb 15bb dab2 c0bb c056 d9bb
00000310: e36f 15c0 1c7c 0ebc 60d6 a23b 87f1 bfbe
00000320: a3fa a2bb 5f60 1cbc 51c7 82bb c678 77bb
00000330: b09a 89ba 0f6b d4bb 282a 56bb e8c6 debb
00000340: 6285 91bb d3ef cbbb 6dc3 acbb 4c20 88bb
00000350: f15e fbbf ded1 b2bb fb77 6cbb 11cd 103d
00000360: dcbd 63bb 31ee 7dbb a9c1 a0bb ce9f 8e3a
00000370: 1e07 babb a327 afbb bc84 9abb 0829 93bb
00000380: bfc2 8039 b368 3ebb 1a2b 1f3e 8557 0bbb
00000390: 380d 91bb bac2 a1bb afc0 92bb b43e 19bb
000003a0: e588 afbb c145 753f 1c93 243b 5053 e8bb
000003b0: e293 0abc af93 4fbc 560f b5bb 89ba baba
000003c0: 476d 3dbb e8c7 8abc 43f6 92bb 3eb3 ab3f
000003d0: 3c4c c5bb d6af c1bf a976 bbbb 6e91 64bb
000003e0: 55ce dfbb f5ab 90bb 3902 10bb c8c8 f5bb
000003f0: fb25 34bb 5dcb 85bb 04d1 b0bf 90d9 07bc
-1.3455255 -0.0043905615 -0.0046740603 -0.53929573 -0.00791832 -1.0973752 -0.0041418946 -0.002602485
-0.0025080582 -0.0005289078 -0.0070886817 -0.0049559902 -0.010202128 -0.005462723 -0.0076699085 -0.0033441756
-0.0029915986 -0.0015100646 -0.0023406525 -0.0040930314 -0.019678399 -0.0052605313 -0.0041559823 -3.3132792
-0.009579366 -0.24467447 -5.6279545 -5.059272 -0.015844015 -0.009267119 -0.0060794554 -0.001167674
-0.0039839908 -0.0011270128 -0.0043753167 -2.2340043 -0.008167509 -0.00607094 -0.006048663 -0.0109440535
-0.0044812113 -0.010021222 -0.0023673007 -2.1320856 -0.006904696 -0.003000109 -0.0055811936 -2.5172877
-0.005179632 -0.0006380982 0.904657 -0.0030370841 0.021936068 -0.0068856925 -0.0049351025 -5.6240697
-0.0075666877 0.004167531 -0.0020879144 -1.9236013 -0.00413598 -3.7129204 -0.0038518335 -0.0004684876
-0.004526971 -0.009959903 -0.0011307197 -0.003723611 -1.6447653 -0.0026877697 0.21590312 -0.0017462407
3.2740443 -0.0035986244 -0.005509933 -0.008183406 -0.06979475 -0.0018603713 -0.008025081 -0.0043646954
-3.1449494 -0.0048016757 -0.008111262 -0.007481011 -0.002634668 -0.004258558 -0.0036957928 -0.010726826
-0.0027653044 -0.005418833 0.01763148 -0.0046152035 -0.0022072985 -0.004524009 -0.0053895116 0.0031820042
-0.0050214827 -0.0019869744 -0.008122461 -0.005350953 -0.0024802303 -0.0026009267 -0.004610413 -0.0037658855
-0.008075419 -0.007808299 -0.00016727402 -0.010969522 -0.00067145884 -0.002491006 -0.006023994 -2.4911358
0.4734469 -0.010074931 -0.0068259635 -0.002335375 -0.003748117 -0.022661297 -0.007290244 -0.0012369871
-0.0076409364 -0.0038015968 0.50730526 -0.0022656417 -0.5983907 -0.0033430068 -0.0035236473 -0.0028836355
-0.0048661614 -0.0049781897 -0.0027839644 -0.0065466687 -0.00836533 -2.2873745 -0.0020512058 -0.0012802704
-0.003905129 -0.0022064056 -0.014020289 -0.021201521 -0.006169939 -0.010343484 -0.74567074 -0.0030777317
-0.00399072 -0.003725851 -2.2470584 -0.010666489 -0.0011746414 3.3485317 1.4602256 -0.0011839992
0.63111573 -0.0077715693 -2.687441 -0.007334937 -0.0034549693 -0.005498327 -0.00066193764 -0.0028618136
-1.9947739 -0.0030009302 -0.020348728 -0.4385607 -0.022516238 -0.002074569 -0.004631491 -0.0046678614
-0.0011782891 -0.0033064103 -0.005424989 -0.0021257917 -0.0052415244 0.003149214 -0.0036230574 -4.4668565
-0.31723967 -0.1467743 -0.009607081 -0.0016461393 -2.1725268 -0.0023821024 -0.009153184 -0.0045061875
-0.002580021 -0.0041159242 -0.00508339 0.0028317836 -0.0021632 -1.0277076 -0.0049478197 -0.010497883
-0.005648557 -0.0022876253 -0.005880696 -0.006632656 -2.334954 -0.008696582 0.004969403 -0.37488958
-0.004973726 -0.009544461 -0.0039910455 -0.0037761196 -0.0010498371 -0.006482489 -0.0032678936 -0.006798614
-0.0044409493 -0.0062236576 -0.00527232 -0.0041542407 -1.9638349 -0.005457147 -0.0036082256 0.035351817
-0.0034750616 -0.003874671 -0.0049058986 0.0010881366 -0.005677118 -0.0053453012 -0.00471553 -0.0044909753
0.0002455916 -0.0029054105 0.15543786 -0.0021261883 -0.0044266246 -0.0049365433 -0.004478536 -0.0023383321
-0.0053568953 0.9580956 0.0025112098 -0.0070900097 -0.00845811 -0.012669488 -0.00552551 -0.0014246266
-0.0028904246 -0.016941026 -0.004484923 1.3414075 -0.0060210507 -1.5131786 -0.0057209325 -0.0034876722
-0.0068300166 -0.00441503 -0.002197398 -0.0075007416 -0.0027488458 -0.0040830807 -1.3813787 -0.008291617

dense_1/kernel/transpose i1 [256, 3072] scale=0.008414305 zero_point=0
00000000: 0de4 e5df ede6 e2fa f4e8 fdfd 0304 0611
00000010: fdee efe8 fa0b ffe3 e9e4 e9f1 f0e6 ef00
00000020: 0c02 f2f8 020a 0d0e 0e0a ffef faf9 0c2c
00000030: 2406 fd05 1718 0a16 0602 0d0f 07fb f600
00000040: f1ea f3f8 0007 fd06 1517 1607 0c14 fd04
00000050: 1513 1716 080f 0b03 e7eb 0412 1b02 08e8
00000060: ebfc fcff feee e7fd 070e 0f18 1612 ebe5
00000070: 041b 0003 f502 0f04 d8ff 0512 20fe fcd5
00000080: dbfb 0102 fde0 fb0d fe06 011b 1221 0a0d
00000090: 060f ff11 1208 0a02 e2f9 f6fc 1907 f1ed
000000a0: ff1f 1302 fb07 060d 0501 0e15 fffa 0022
000000b0: 00e9 f106 070d fce9 dee3 eb02 f9ee fdf9
000000c0: 0018 2907 0704 020e 1205 0009 eae4 ea02
000000d0: fcf2 f4f0 ee08 04f6 f2fb f70e f3f3 fdfd
000000e0: ebf9 1406 0af7 01f8 dec8 d3e8 d7e3 dde8
000000f0: e3ec f4f3 fcf9 0dfd dbd3 e807 f8ef 0900
0.10938596 -0.23560053 -0.22718623 -0.27767205 -0.15987179 -0.21877192 -0.25242916 -0.050485827
-0.100971654 -0.20194331 -0.025242914 -0.025242914 0.025242914 0.03365722 0.050485827 0.14304318
-0.025242914 -0.15145749 -0.14304318 -0.20194331 -0.050485827 0.092557356 -0.008414305 -0.24401484
-0.19352901 -0.23560053 -0.19352901 -0.12621458 -0.13462888 -0.21877192 -0.14304318 0.0
0.100971654 0.01682861 -0.117800266 -0.06731444 0.01682861 0.08414305 0.10938596 0.117800266
0.117800266 0.08414305 -0.008414305 -0.14304318 -0.050485827 -0.058900133 0.100971654 0.37022942
0.30291498 0.050485827 -0.025242914 0.042071525 0.19352901 0.20194331 0.08414305 0.18511471
0.050485827 0.01682861 0.10938596 0.12621458 0.058900133 -0.042071525 -0.08414305 0.0
-0.12621458 -0.18511471 -0.10938596 -0.06731444 0.0 0.058900133 -0.025242914 0.050485827
0.1767004 0.19352901 0.18511471 0.058900133 0.100971654 0.1682861 -0.025242914 0.03365722
0.1767004 0.15987179 0.19352901 0.18511471 0.06731444 0.12621458 0.092557356 0.025242914
-0.21035762 -0.1767004 0.03365722 0.15145749 0.22718623 0.01682861 0.06731444 -0.20194331
-0.1767004 -0.03365722 -0.03365722 -0.008414305 -0.01682861 -0.15145749 -0.21035762 -0.025242914
0.058900133 0.117800266 0.12621458 0.20194331 0.18511471 0.15145749 -0.1767004 -0.22718623
0.03365722 0.22718623 0.0 0.025242914 -0.092557356 0.01682861 0.12621458 0.03365722
-0.3365722 -0.008414305 0.042071525 0.15145749 0.26925775 -0.01682861 -0.03365722 -0.3618151
-0.31132928 -0.042071525 0.008414305 0.01682861 -0.025242914 -0.26925775 -0.042071525 0.10938596
-0.01682861 0.050485827 0.008414305 0.22718623 0.15145749 0.27767205 0.08414305 0.10938596
0.050485827 0.12621458 -0.008414305 0.14304318 0.15145749 0.06731444 0.08414305 0.01682861
-0.25242916 -0.058900133 -0.08414305 -0.03365722 0.21035762 0.058900133 -0.12621458 -0.15987179
-0.008414305 0.26084346 0.15987179 0.01682861 -0.042071525 0.058900133 0.050485827 0.10938596
0.042071525 0.008414305 0.117800266 0.1767004 -0.008414305 -0.050485827 0.0 0.28608635
0.0 -0.19352901 -0.12621458 0.050485827 0.058900133 0.10938596 -0.03365722 -0.19352901
-0.28608635 -0.24401484 -0.1767004 0.01682861 -0.058900133 -0.15145749 -0.025242914 -0.058900133
0.0 0.20194331 0.3449865 0.058900133 0.058900133 0.03365722 0.01682861 0.117800266
0.15145749 0.042071525 0.0 0.075728744 -0.18511471 -0.23560053 -0.18511471 0.01682861
-0.03365722 -0.117800266 -0.100971654 -0.13462888 -0.15145749 0.06731444 0.03365722 -0.08414305
-0.117800266 -0.042071525 -0.075728744 0.117800266 -0.10938596 -0.10938596 -0.025242914 -0.025242914
-0.1767004 -0.058900133 0.1682861 0.050485827 0.08414305 -0.075728744 0.008414305 -0.06731444
-0.28608635 -0.47120106 -0.37864372 -0.20194331 -0.3449865 -0.24401484 -0.29450068 -0.20194331
-0.24401484 -0.1682861 -0.100971654 -0.10938596 -0.03365722 -0.058900133 0.10938596 -0.025242914
-0.31132928 -0.37864372 -0.20194331 0.058900133 -0.06731444 -0.14304318 0.075728744 0.0

dense_2/MatMul_bias f4 [256]
00000000: e66b 8f3d 4f09 913e e2d5 b13c bd1c 80bf
00000010: 547b 5bbf 37f6 63bf 10b5 193e a7d2 84bf
00000020: 6a96 333e 544c 1d3f 0544 9abf fa0c 97bd
00000030: 221e b23e fa83 68bf 31d4 3cbf 0c36 c93e
00000040: 21f1 a6be 7d40 beba 3a4c bcbe faea 24bf
00000050: cb42 7abe be0f 11bf f2f0 b23e 62c7 253f
00000060: 67ae 1bbd aace 103f 0b01 b1be 5c0d adbe
00000070: 1a6e 22ba 55bd 4a3e cc0f 13bf f80f 07bf
00000080: f424 f03e 7859 30bf c004 43bf 54df 35bf
00000090: 800b e83d 0117 393e 288b 333e 0a66 95bf
000000a0: adac bb3e db7d 9fbe 5c06 f23e 6f8b 03bf
000000b0: f651 64bf 58a9 553e fdbf 4e3e 3532 b53e
000000c0: 5851 e7be ce0b 14bc 1ed1 ed3d 3aee 433e
000000d0: dd54 133f d0c8 1bbf c814 883e 8df0 cdbe
000000e0: 3398 bebe 366d b3be 4df4 d5bd 6784 1b3f
000000f0: dec8 793d 9ad6 05bf 6f1e 36be 7840 18bf
00000100: 6131 3ebf f97c 27bf 6727 993d 68be 333e
00000110: a506 4bbf 09da 70bf c759 5dbe fc67 a93e
00000120: 70c0 92bf 19db 1fbf ffe9 e13e 8ba4 c83e
00000130: 373c 01bd ef25 1d3e 2005 293f ec63 d43e
00000140: e6b2 01be fb34 cdbe 5e65 f8be fa62 d43e
00000150: eab2 07bf 6325 8abf 1dbb f4be 98a9 0dbf
00000160: 0986 4fbf 1c0d 26bf c042 b83e 9494 83bf
00000170: 62a0 77bf 5724 213f 0e67 54bf 94dd ba3d
00000180: 2a1a 1b3d cad4 903e bc71 3c3e efad 2a3f
00000190: 0d59 88bf d06c 54bf edf3 2abe dca0 41be
000001a0: 3861 0cbf f7b6 1c3f f41f e1be d504 7abf
000001b0: 5e32 713e b7c8 30bf e53e ccba cb21 32bf
000001c0: dc75 36bf 9d41 20be efec 843e f6fd 1ebf
000001d0: 946d 473e b072 dbbe ef36 413f e155 ffbe
000001e0: 824e 9bbf 0007 ee3e 35e0 81be 0dca 85bf
000001f0: abe0 123f 60ea 39bf b82a 8cbf a0a4 e13e
00000200: b804 613e b6fb 033f 652c e7be d2f3 1abf
00000210: efa9 66bf 58c5 523e 07a4 a8be 7a62 9dbe
00000220: efac 30bf ee49 cc3e a605 8ebe 719d bd3e
00000230: 7316 12bf 7f6a 2ebf ae78 11bf 42c8 92bf
00000240: 2295 12bf 7b2d 223f 8453 b73e b9c0 dcbe
00000250: 2489 4a3e 804f 4fbf 0a32 003f 4f4e 1c3c
00000260: aa26 153f 6735 ba3e db21 2cbf f381 db3e
00000270: 5976 00bc 3a89 27bf a37e b33e 3ab0 69be
00000280: 8319 c93e b097 0f3e 5fd2 333e 9083 363e
00000290: 7ba5 10bf 560d 15bf 35cb 8f3e 2070 993e
000002a0: 33d4 2bbf 7f0a 1bbf 0bb7 07bf c3b6 7d3e
000002b0: fd21 05be 57bc a83e bc98 e8be 36e9 9b3e
000002c0: 45ad 9bbf 648b 53bf 8618 31bf 04ec a83e
000002d0: 2440 7ebf 91a2 72bf 6aa4 32bf 9a66 23bf
000002e0: 1409 963d fc06 dc3c 8119 6abe c3a4 5dbf
000002f0: 73fa 243f ce9a e23e f4f1 1ebe 3c09 e3be
00000300: 7896 43bf 5fd9 073e c142 d7be fd24 30bf
00000310: aa0a a5be a8c4 dd3d 90ba 333f e279 80bf
00000320: bddf 633e 9157 433e 1c14 06bf 0004 e9be
00000330: e470 d33e 5769 71bf 7057 c23d 6cd0 073f
00000340: f6bf 573d b250 073f 5dcf 2dbe 6fc8 49be
00000350: d047 9dbe 9128 4a3e 62ff cb3d 85ad 233f
00000360: 9993 233e b484 9a3d 4e0e babe 702e 87bd
00000370: 4230 febe b941 dcbe c5cd 133f e88a 9bbe
00000380: 9758 49bf b0b5 33bf 3294 b3be ac59 b53d
00000390: c41d ecbe eef6 40bf ef74 1d3f 03bd 4c3e
000003a0: d874 d03e 9ca7 a43e 6f5c 44bf 4230 acbe
000003b0: 768a 0b3e b207 4b3e 8617 95bf 3caf 8dbe
000003c0: 629f e4be 787a d53d 8ff0 5d3e c742 43bf
000003d0: 02a9 8cbe eb59 06bf eaa6 f53e 5b97 7bbe
000003e0: 9377 6e3e ea93 d0be fcde 91bf 9852 bf3e
000003f0: 77be 9b3e 85df edbe eea0 87bf 5dbe a2bf
0.07003002 0.28327414 0.021708433 -1.000877 -0.8573506 -0.8904757 0.15010476 -1.0376786
0.17537847 0.6144459 -1.2052008 -0.07375522 0.34788615 -0.9082638 -0.7376128 0.39299047
-0.32605842 -0.0014515069 -0.36776906 -0.64421046 -0.24439542 -0.56664646 0.34949452 0.6475736
-0.03800812 0.56565344 -0.34571108 -0.33799255 -0.0006196216 0.19798787 -0.5744598 -0.5275874
0.46903193 -0.6888652 -0.7617912 -0.71043897 0.113303185 0.18075182 0.17533553 -1.1671765
0.3665518 -0.31150708 0.47270477 -0.51384634 -0.8918756 0.20865381 0.20190425 0.35389867
-0.45179248 -0.009036018 0.116121516 0.19133845 0.57551366 -0.6085329 0.26578355 -0.40222588
-0.37225494 -0.3504426 -0.10446987 0.60748905 0.060982578 -0.5228058 -0.17785047 -0.5947337
-0.74294096 -0.6542507 0.074782185 0.17553103 -0.79307014 -0.94082695 -0.21616279 0.33087146
-1.1464977 -0.6244369 0.44123837 0.39188036 -0.031551566 0.15346502 0.66023445 0.41482484
-0.126659 -0.40079483 -0.48514837 0.41481763 -0.53007376 -1.079266 -0.47799006 -0.55336905
-0.81063896 -0.64863753 0.35988426 -1.0279717 -0.967291 0.62946075 -0.8296975 0.09124294
0.03786675 0.28287345 0.18402761 0.6667165 -1.0652176 -0.82978535 -0.16694613 -0.18909019
-0.54835844 0.6121668 -0.4396969 -0.97663623 0.2355437 -0.69056267 -0.0015582709 -0.69582814
-0.7127359 -0.1565003 0.25962016 -0.62106264 0.19475394 -0.42860937 0.75474447 -0.49870208
-1.2133334 0.46489716 -0.2536637 -1.0452286 0.57374066 -0.7262325 -1.0950537 0.4407091
0.21974456 0.51555955 -0.45151058 -0.6052829 -0.9010305 0.20583093 -0.32937643 -0.30739194
-0.69013876 0.39900154 -0.27738684 0.3703418 -0.57065505 -0.6813125 -0.5682477 -1.1467364
-0.5725881 0.6335065 0.35805905 -0.43115786 0.19778877 -0.8098068 0.50076354 0.009540155
0.5826212 0.36368868 -0.6723916 0.4287258 -0.007840716 -0.65443766 0.35057554 -0.22821131
0.39277276 0.14022708 0.17560719 0.17823625 -0.56502503 -0.58223474 0.28084722 0.29968357
-0.67120665 -0.6056289 -0.53013676 0.2477675 -0.13001247 0.32956192 -0.45429027 0.30451363
-1.2162253 -0.8263457 -0.69178045 0.32992566 -0.9931662 -0.94779307 -0.69782126 -0.6382843
0.0732595 0.0268588 -0.22861291 -0.8657953 0.64444655 0.44258732 -0.15521985 -0.44342983
-0.7640147 0.13266514 -0.42043117 -0.6880644 -0.322347 0.10828525 0.70206547 -1.0037196
0.22253318 0.19076373 -0.52374434 -0.45510864 0.41297066 -0.9430136 0.09489334 0.530524
0.052673303 0.52857506 -0.16973634 -0.19705366 -0.3071885 0.19742037 0.0996082 0.63936645
0.15974273 0.07544842 -0.3633904 -0.06600654 -0.49646193 -0.43018892 0.57735854 -0.30379415
-0.786508 -0.7019911 -0.35074002 0.08854994 -0.4611646 -0.75376785 0.6150655 0.19993977
0.40714145 0.32159126 -0.7670354 -0.33630568 0.13627037 0.19827154 -1.1647804 -0.27672756
-0.4465285 0.1042375 0.21673797 -0.7627377 -0.27472693 -0.52480954 0.47978908 -0.24569456
0.23287801 -0.4073785 -1.1396174 0.37367702 0.3041875 -0.46459594 -1.0595987 -1.2714344

dense_2/kernel/transpose i1 [256, 256] scale=0.0049944283 zero_point=0
00000000: e203 11dc ed10 eff0 15ed 02fd f0fb ebf9
00000010: 12ff f500 0710 f9e5 06f9 eae2 f407 fb0e
00000020: eff0 11ef 0dff f809 fd0f f8f4 0f0a 05ef
00000030: ebef f4f6 1203 04e9 0fef ff01 14ee 0209
00000040: 05fd fa03 f6f5 ffff ffee 0911 ecf1 f10e
00000050: eb0e 140f ec13 07f8 16f2 00ee f112 eaef
00000060: f30c f5f5 02fe 020c 09fa efed 05ec 08f3
00000070: d3fd 08f8 ecef f80f 04ec 0f02 f30a 0804
00000080: 11f5 040a fc14 f9fd 11f6 0a0a 0102 f1f3
00000090: 07ed e612 fc00 fced 1901 dfee 11f1 0715
000000a0: e4f3 f2ca faf3 f600 ec01 f807 fefc f7e2
000000b0: fd04 000a 0115 ea12 0ffd 0205 00e8 0d0a
000000c0: 0d10 fbf1 e214 0219 ec04 ed13 0a03 05ff
000000d0: 03ed 0303 0ffb fff8 eb06 0007 f111 f6f2
000000e0: eeeb f5ec 020a f7f1 00fc f5f2 03fa f20f
000000f0: 0315 fd05 fb17 030d edeb 050d 03f1 ed05
-0.14983284 0.014983285 0.08490528 -0.17979942 -0.09489413 0.07991085 -0.08490528 -0.07991085
0.10488299 -0.09489413 0.0099888565 -0.014983285 -0.07991085 -0.02497214 -0.10488299 -0.034960996
0.08989971 -0.0049944283 -0.05493871 0.0 0.034960996 0.07991085 -0.034960996 -0.13484956
0.02996657 -0.034960996 -0.10987742 -0.14983284 -0.05993314 0.034960996 -0.02497214 0.06992199
-0.08490528 -0.07991085 0.08490528 -0.08490528 0.06492757 -0.0049944283 -0.039955426 0.044949856
-0.014983285 0.07491642 -0.039955426 -0.05993314 0.07491642 0.04994428 0.02497214 -0.08490528
-0.10488299 -0.08490528 -0.05993314 -0.04994428 0.08989971 0.014983285 0.019977713 -0.11487185
0.07491642 -0.08490528 -0.0049944283 0.0049944283 0.09988856 -0.08989971 0.0099888565 0.044949856
0.02497214 -0.014983285 -0.02996657 0.014983285 -0.04994428 -0.05493871 -0.0049944283 -0.0049944283
-0.0049944283 -0.08989971 0.044949856 0.08490528 -0.09988856 -0.07491642 -0.07491642 0.06992199
-0.10488299 0.06992199 0.09988856 0.07491642 -0.09988856 0.09489413 0.034960996 -0.039955426
0.10987742 -0.06992199 0.0 -0.08989971 -0.07491642 0.08989971 -0.10987742 -0.08490528
-0.06492757 0.05993314 -0.05493871 -0.05493871 0.0099888565 -0.0099888565 0.0099888565 0.05993314
0.044949856 -0.02996657 -0.08490528 -0.09489413 0.02497214 -0.09988856 0.039955426 -0.06492757
-0.22474927 -0.014983285 0.039955426 -0.039955426 -0.09988856 -0.08490528 -0.039955426 0.07491642
0.019977713 -0.09988856 0.07491642 0.0099888565 -0.06492757 0.04994428 0.039955426 0.019977713
0.08490528 -0.05493871 0.019977713 0.04994428 -0.019977713 0.09988856 -0.034960996 -0.014983285
0.08490528 -0.04994428 0.04994428 0.04994428 0.0049944283 0.0099888565 -0.07491642 -0.06492757
0.034960996 -0.09489413 -0.12985514 0.08989971 -0.019977713 0.0 -0.019977713 -0.09489413
0.124860704 0.0049944283 -0.16481613 -0.08989971 0.08490528 -0.07491642 0.034960996 0.10488299
-0.13984399 -0.06492757 -0.06992199 -0.26969913 -0.02996657 -0.06492757 -0.04994428 0.0
-0.09988856 0.0049944283 -0.039955426 0.034960996 -0.0099888565 -0.019977713 -0.044949856 -0.14983284
-0.014983285 0.019977713 0.0 0.04994428 0.0049944283 0.10488299 -0.10987742 0.08989971
0.07491642 -0.014983285 0.0099888565 0.02497214 0.0 -0.11986628 0.06492757 0.04994428
0.06492757 0.07991085 -0.02497214 -0.07491642 -0.14983284 0.09988856 0.0099888565 0.124860704
-0.09988856 0.019977713 -0.09489413 0.09489413 0.04994428 0.014983285 0.02497214 -0.0049944283
0.014983285 -0.09489413 0.014983285 0.014983285 0.07491642 -0.02497214 -0.0049944283 -0.039955426
-0.10488299 0.02996657 0.0 0.034960996 -0.07491642 0.08490528 -0.04994428 -0.06992199
-0.08989971 -0.10488299 -0.05493871 -0.09988856 0.0099888565 0.04994428 -0.044949856 -0.07491642
0.0 -0.019977713 -0.05493871 -0.06992199 0.014983285 -0.02996657 -0.06992199 0.07491642
0.014983285 0.10488299 -0.014983285 0.02497214 -0.02497214 0.11487185 0.014983285 0.06492757
-0.09489413 -0.10488299 0.02497214 0.06492757 0.014983285 -0.07491642 -0.09489413 0.02497214

dense_3/MatMul_bias f4 [10]
00000000: 7fb2 5a3e 10a8 ae3e 12d5 17bf 3775 103e
00000010: 758b 0ebf c7ec 17be e1e3 96be 5b24 adbe
00000020: 615e 033f 26e2 383f
0.21357153 0.34112597 -0.59309494 0.14107214 -0.55681545 -0.14836417 -0.29470733 -0.338168
0.51315886 0.72220075

dense_3/kernel/transpose i1 [10, 256] scale=0.0024781916 zero_point=0
00000000: c720 f6fe 3ef9 f10e 0dec 20fa 2de0 f1e9
00000010: 1d18 2835 0539 1abf e622 f907 cd0b 27fd
00000020: 0bf4 0754 0cf9 2c3f f822 d815 0dfe d8f0
00000030: 00ef 0d2f 1301 fd16 2532 e309 343a fd38
00000040: 1904 ec2a 0bf4 1f07 ef29 08fb 001f e7cd
00000050: 0221 2318 1ae9 091e e902 050a 1ea8 15e5
00000060: d7e0 13ee da28 1ffa e728 02e6 cb1f dcf1
00000070: 28fb 231b 293b e3f4 11cd 2107 d92c 48de
00000080: 04fc 2935 0816 0126 d6c6 1260 002d 3111
00000090: 3bf5 201c f1e9 dc0b e6ff 1bbc 0c07 2628
000000a0: 0c07 0315 274a 9b0c 1f18 060a ec2f 00f8
000000b0: 0916 163a 20e8 2224 c71f 1308 ec08 162b
000000c0: f5f7 0c25 f929 14f9 eb26 f001 bc10 fbfc
000000d0: 28f2 1505 36fa 0d06 4337 d2ea 0d2f 1905
000000e0: 3537 2601 2608 ea04 fcc4 fc30 df44 df18
000000f0: 1301 0f4c dd33 b1ed 3ce1 f6e4 e02a 00fc
-0.14125693 0.07930213 -0.024781916 -0.0049563833 0.15364788 -0.017347341 -0.037172876 0.034694683
0.03221649 -0.049563833 0.07930213 -0.01486915 0.11151862 -0.07930213 -0.037172876 -0.05699841
0.071867555 0.0594766 0.099127665 0.13134415 0.012390958 0.14125693 0.06443298 -0.16108246
-0.06443298 0.08425851 -0.017347341 0.017347341 -0.12638777 0.027260108 0.096649475 -0.007434575
0.027260108 -0.0297383 0.017347341 0.20816809 0.0297383 -0.017347341 0.10904043 0.15612607
-0.019825533 0.08425851 -0.099127665 0.052042022 0.03221649 -0.0049563833 -0.099127665 -0.039651066
0.0 -0.042129256 0.03221649 0.11647501 0.047085643 0.0024781916 -0.007434575 0.054520216
0.09169309 0.12390958 -0.071867555 0.022303725 0.12886596 0.14373511 -0.007434575 0.13877873
0.06195479 0.0099127665 -0.049563833 0.104084045 0.027260108 -0.0297383 0.07682394 0.017347341
-0.042129256 0.101605855 0.019825533 -0.012390958 0.0 0.07682394 -0.06195479 -0.12638777
0.0049563833 0.08178032 0.08673671 0.0594766 0.06443298 -0.05699841 0.022303725 0.07434575
-0.05699841 0.0049563833 0.012390958 0.024781916 0.07434575 -0.21808086 0.052042022 -0.066911176
-0.101605855 -0.07930213 0.047085643 -0.04460745 -0.094171286 0.099127665 0.07682394 -0.01486915
-0.06195479 0.099127665 0.0049563833 -0.06443298 -0.13134415 0.07682394 -0.0892149 -0.037172876
0.099127665 -0.012390958 0.08673671 0.066911176 0.101605855 0.14621331 -0.071867555 -0.0297383
0.042129256 -0.12638777 0.08178032 0.017347341 -0.096649475 0.10904043 0.1784298 -0.08425851
0.0099127665 -0.0099127665 0.101605855 0.13134415 0.019825533 0.054520216 0.0024781916 0.094171286
-0.104084045 -0.14373511 0.04460745 0.2379064 0.0 0.11151862 0.12143139 0.042129256
0.14621331 -0.027260108 0.07930213 0.069389366 -0.037172876 -0.05699841 -0.0892149 0.027260108
-0.06443298 -0.0024781916 0.066911176 -0.16851702 0.0297383 0.017347341 0.094171286 0.099127665
0.0297383 0.017347341 0.007434575 0.052042022 0.096649475 0.18338618 -0.25029737 0.0297383
0.07682394 0.0594766 0.01486915 0.024781916 -0.049563833 0.11647501 0.0 -0.019825533
0.022303725 0.054520216 0.054520216 0.14373511 0.07930213 -0.0594766 0.08425851 0.0892149
-0.14125693 0.07682394 0.047085643 0.019825533 -0.049563833 0.019825533 0.054520216 0.10656224
-0.027260108 -0.022303725 0.0297383 0.09169309 -0.017347341 0.101605855 0.049563833 -0.017347341
-0.052042022 0.094171286 -0.039651066 0.0024781916 -0.16851702 0.039651066 -0.012390958 -0.0099127665
0.099127665 -0.034694683 0.052042022 0.012390958 0.13382235 -0.01486915 0.03221649 0.01486915
0.16603884 0.13630053 -0.11399682 -0.054520216 0.03221649 0.11647501 0.06195479 0.012390958
0.13134415 0.13630053 0.094171286 0.0024781916 0.094171286 0.019825533 -0.054520216 0.0099127665
-0.0099127665 -0.1486915 -0.0099127665 0.1189532 -0.08178032 0.16851702 -0.08178032 0.0594766
0.047085643 0.0024781916 0.037172876 0.18834257 -0.08673671 0.12638777 -0.19577713 -0.047085643
0.1486915 -0.07682394 -0.024781916 -0.069389366 -0.07930213 0.104084045 0.0 -0.0099127665
